mymodel.pt (torch, 1191 bytes, 1 tensors)

0.weight f4 [1, 30]
00000000: a373 5ebe edc1 eabe bb02 bebe d7ad 47be
00000010: 89ee 3fbe 0ad1 acbe 9e3a 91be 0989 6fbe
00000020: d6cf f0bd 2a25 d63e 8ad1 4bbe a7bd e4bb
00000030: 6c7c 6ebe 13ef 8dbe 6215 fa3d 59d2 233e
00000040: 7665 ecbc a629 7dbe ab33 b03d 739b f73e
00000050: 9a5c b8be b5a1 9ebe d9c3 7cbe afb4 fabe
00000060: 35c9 ecbe f948 85be 6643 b5be 8366 28be
00000070: 09d3 b5be e552 62be
-0.217238 -0.4585108 -0.37111458 -0.19499908 -0.18743338 -0.33753234 -0.28365034 -0.23392119
-0.117583916 0.4182523 -0.19904152 -0.006980616 -0.2328965 -0.27721462 0.1221111 0.1599821
-0.028856974 -0.24722919 0.08603605 0.48360786 -0.3600815 -0.30982748 -0.24684085 -0.48965976
-0.4624726 -0.26032236 -0.35402983 -0.16445355 -0.3551257 -0.22101934
